trained_models/best_model.pth (torch, 82082 bytes, 27 tensors)

conv1a.weight f4 [8, 1, 3, 3]
0	0x3e430391	0.19044329
1	0x3dec8bee	0.11550127
2	0x3e7c1dd6	0.24620757
3	0xbe698a29	-0.2280661
4	0x3e434eee	0.19073078
5	0x3da347a7	0.07972651
6	0xbe91ebf6	-0.28500336
7	0xbda030c1	-0.07821799
8	0x3bcdbcab	0.0062785945
9	0xbecf9145	-0.4054052
10	0x3d45263f	0.048132177
11	0x3e86aa29	0.26301697
12	0xbea03ca0	-0.31296253
13	0xbd49531a	-0.049151517
14	0x3e87e774	0.26543772
15	0xbdb62ef3	-0.088956736
16	0xbe04347c	-0.12910646
17	0x3d8c9d9d	0.06866
18	0xbe528c13	-0.20561247
19	0x3d062d27	0.032757904
20	0xbdd6342d	-0.104591705
21	0x3da66cb9	0.08126206
22	0xbe35e5d8	-0.1776346
23	0xbddfe06c	-0.10931477
24	0xbcb75d46	-0.022383343
25	0x3daaa5e8	0.08332425
26	0xbe81cfdf	-0.25353906
27	0x3e636f61	0.22210456
28	0x3d96edaf	0.07369553
29	0xbe58f064	-0.21185452
30	0x3e7ab68a	0.24483696
31	0x3e643bd1	0.22288443
32	0xbe43479e	-0.19070289
33	0xbd33b6cf	-0.04387551
34	0x3dd0ee8e	0.10201751
35	0xbe2cede7	-0.16887628
36	0x3debe3d2	0.11518063
37	0x3d5b4d06	0.053540252
38	0x3e03b7ee	0.12863132
39	0x3dd27961	0.102770574
40	0x3e594194	0.21216422
41	0x3e3ee285	0.18641098
42	0xbea7f584	-0.328045
43	0xbe5de776	-0.21670327
44	0xbe2deb5f	-0.16984318
45	0xbe3e5e33	-0.18590622
46	0xbe0c279c	-0.13686985
47	0xbdb112df	-0.086461775
48	0xbd6883f5	-0.05676647
49	0xbe2f5a07	-0.17124186
50	0xbe75bc46	-0.23997602
51	0x3e71425e	0.23560473
52	0x3e187e1c	0.14891857
53	0xbdafa9aa	-0.08577283
54	0x3e2a740e	0.16645834
55	0x3ad64cf6	0.001634984
56	0xbe8707b4	-0.26373065
57	0x3cc7a2be	0.024369594
58	0x3dbf493e	0.09340142
59	0x3e806947	0.2508032
60	0xbd99a975	-0.075030245
61	0xbc94806f	-0.018127648
62	0x3e7b5a62	0.24546197
63	0xbe06e6a5	-0.13173921
64	0x3dff5827	0.124679856
65	0xbe24d3ab	-0.1609637
66	0xbde91d90	-0.11382592
67	0xbd1d5c48	-0.038418084
68	0xbe1ad9b0	-0.15122104
69	0xbe3fcef1	-0.18731286
70	0xbdc93f70	-0.09826553
71	0x3c3b30e9	0.011425235

bn1a.weight f4 [8]
0	0x3f250894	0.64466214
1	0x3f2e64f5	0.681228
2	0x3f119b55	0.5687764
3	0x3f1b08b1	0.6056014
4	0x3f1ecd40	0.62031937
5	0x3efce7c7	0.49395582
6	0x3f0ffbe0	0.56243706
7	0x3f0ab8de	0.54188335

bn1a.bias f4 [8]
0	0x3d40aa7a	0.04703758
1	0xbcd60e94	-0.026129998
2	0xbd91a014	-0.071106106
3	0x3df7bb6a	0.12096293
4	0x3dceb03d	0.100922085
5	0xbd2c9e58	-0.042143196
6	0x3d873e8d	0.066037275
7	0x3de1ae53	0.11019578

bn1a.running_mean f4 [8]
0	0x3e21a7ba	0.15786639
1	0x3e506aa8	0.20353186
2	0x3e4d000b	0.20019548
3	0x3e36e251	0.1785977
4	0x3e03632a	0.12830797
5	0x3e4e9f2f	0.20177911
6	0x3e3a4224	0.18189293
7	0x3e5f3aba	0.21799746

bn1a.running_var f4 [8]
0	0x3e209258	0.15680826
1	0x3dcb9327	0.099401765
2	0x3c90e6f4	0.017688252
3	0x3e4669d6	0.1937631
4	0x3e00e7cb	0.12588422
5	0x3ce28fd4	0.027656473
6	0x3e187f3e	0.14892289
7	0x3ca69c6c	0.02033826

conv1b.weight f4 [16, 8, 3, 3]
0	0x3d8dbe71	0.069210894
1	0xbd5a16dd	-0.05324446
2	0x3d058a95	0.032602865
3	0xbc0f115c	-0.008732166
4	0xbc6bbd0c	-0.014388334
5	0xbbafa293	-0.0053599565
6	0xbde5ee98	-0.11227149
7	0x3baf6a67	0.0053532603
8	0xbd9453fc	-0.07242581
9	0x3d7b2b88	0.06132081
10	0xbd6fc9ab	-0.058541935
11	0xbdb0f701	-0.08640862
12	0xbd23c56a	-0.03998319
13	0xbd911d5d	-0.07085679
14	0xbd7678af	-0.060173687
15	0xbda0cb13	-0.07851233
16	0x3cbf3e0e	0.02334502
17	0xbc22b484	-0.009930734
18	0xbdff1206	-0.124546096
19	0xbd40cc9a	-0.047070123
20	0xbd95a686	-0.073071525
21	0xbd91fd61	-0.07128406
22	0x3c7343a2	0.014847668
23	0x3d1c55f0	0.038167894
24	0x3d261d4c	0.040555283
25	0xbd4cb792	-0.049979754
26	0x3b7611dd	0.0037547268
27	0xbd1afc19	-0.037838075
28	0xbb2eb2df	-0.0026656908
29	0x3c126351	0.008934812
30	0xbd18bfc6	-0.037292264
31	0x3d87cc3c	0.066307515
32	0x3dba3536	0.090921804
33	0x3ccbe2fb	0.024888506
34	0x3c1d4798	0.009599589
35	0xb9f3e680	-0.00046520308
36	0x3c008a7c	0.007845517
37	0xbcfebef1	-0.031096907
38	0xbda40474	-0.08008662
39	0xbe00dcf7	-0.12584291
40	0xbc930b3c	-0.017949693
41	0x3c5ec0c0	0.01359576
42	0xbcc5c0db	-0.024139812
43	0x3da69e0a	0.08135612
44	0x3d175540	0.036946535
45	0x3d26e801	0.0407486
46	0x3d4326b8	0.047644347
47	0xbd80e36d	-0.06293378
48	0x3d828329	0.06372673
49	0xbd1e9772	-0.03871865
50	0xbdd6d7d6	-0.10490386
51	0xbca77f03	-0.020446306
52	0xbdec419f	-0.11535954
53	0xbcb3a8f4	-0.021931149
54	0xbadd34e2	-0.0016876722
55	0x3d1e8a05	0.038705844
56	0xbd3f0836	-0.04663869
57	0xbce289a9	-0.027653532
58	0x3d64e916	0.05588635
59	0xbd979eff	-0.07403373
60	0xbda41abb	-0.08012911
61	0xbdcad083	-0.09903052
62	0xbd9cb62d	-0.07651935
63	0xbd9edb45	-0.07756666
64	0xbd3a3a22	-0.045465596
65	0xbd3259ca	-0.04354266
66	0xbc7059b9	-0.014669829
67	0x3da9bef2	0.08288373
68	0xbc8046da	-0.015658785
69	0x3da52a55	0.08064715
70	0x3c8f9e47	0.017531527
71	0xba719064	-0.0009214936
72	0xbd067a54	-0.032831505
73	0xbdd80d7b	-0.10549446
74	0xbdd74c30	-0.105125785
75	0x3dda13be	0.10648297
76	0x3de4214b	0.11139163
77	0x3ca393fe	0.01996803
78	0x3de24784	0.11048797
79	0x3e2be354	0.16785938
80	0x3d2bdc32	0.04195804
81	0xbd8e46b8	-0.06947082
82	0xbdca127e	-0.09866808
83	0xbd352965	-0.04422893
84	0xbd942f90	-0.07235634
85	0xbd2b0ace	-0.04175835
86	0xbdc9a93e	-0.098467335
87	0x3d159196	0.036515795
88	0x3d790ddd	0.060804237
89	0xbd6b9fa9	-0.05752531
90	0xbd38ed49	-0.045148168
91	0xb9a88626	-0.00032143405
92	0x3d1f0672	0.038824506
93	0x3cf6f7c2	0.030147437
94	0xbccc9206	-0.024971973
95	0xbd7b63d0	-0.061374485
96	0x3dca5eff	0.098814
97	0x3d93ec4c	0.072228044
98	0x3c8b54c4	0.017008193
99	0x3d7edd7d	0.062222946
100	0xbd7dafc7	-0.061935212
101	0xbdb8b764	-0.09019354
102	0xbcb9d16e	-0.022682872
103	0x3b469c52	0.0030305577
104	0x3a4727a4	0.00075971545
105	0xbda88011	-0.08227552
106	0x3d03d51e	0.032185666
107	0xbdb52c74	-0.088463694
108	0xbd57b8df	-0.05266654
109	0xbdb88020	-0.09008813
110	0xbd02e77a	-0.031959035
111	0x3de3f577	0.11130803
112	0x3ceabcad	0.02865442
113	0xbc9dd3a5	-0.019265959
114	0x3ce3c128	0.027802065
115	0x3cce93b7	0.02521692
116	0xbd4c2a32	-0.049844928
117	0xbc0cb9eb	-0.008589248
118	0x3d2cbb5e	0.042170875
119	0x3d32c01c	0.04364024
120	0xbd47ad9d	-0.048749555
121	0xbd359d3e	-0.04433941
122	0x3cadbd60	0.021208465
123	0x3da9ac9d	0.082848765
124	0xbd1fc13e	-0.03900265
125	0xbd52fa09	-0.051507983
126	0x3df84cf8	0.121240556
127	0xbd471cc3	-0.048611414
128	0xbdf481dd	-0.11938832
129	0x3d8d4e20	0.06899667
130	0x3db6b612	0.08921446
131	0xbb87d1d8	-0.0041448884
132	0x3c1725fd	0.009225366
133	0xbbfdb865	-0.007742929
134	0x3d76c273	0.060244035
135	0x3cc9d159	0.024635958
136	0xbd20bdd0	-0.03924352
137	0xbdaa220f	-0.083072774
138	0x3cd3dfe9	0.025863605
139	0x3d5bc51b	0.05365477
140	0xbd1f1c7e	-0.03884553
141	0x3cd4409d	0.025909716
142	0x3d4fe860	0.05075872
143	0x3d7564db	0.059910636
144	0xbd8049d3	-0.06264081
145	0xbdc6d9cd	-0.09709511
146	0x3db91fce	0.090392694
147	0xbd11a9ed	-0.035562444
148	0x3d2162e2	0.039400943
149	0x3d56737c	0.05235623
150	0x3ccdb406	0.025110256
151	0xbb9d9ee8	-0.004810203
152	0x3cabb0ea	0.020958383
153	0xbd303b70	-0.043025434
154	0xbd6a7178	-0.05723712
155	0xbcacc7ce	-0.021091368
156	0xbd01b441	-0.031666044
157	0xbdfb8163	-0.12280538
158	0xbd00f30d	-0.03148179
159	0xbcad8d4d	-0.021185542
160	0xbdceea0d	-0.101032354
161	0xbe00dbdf	-0.12583874
162	0xbd1e87a5	-0.03870358
163	0xbd16b800	-0.03679657
164	0xbc9123af	-0.01771721
165	0x3b922406	0.0044598607
166	0xbdd509c3	-0.104022525
167	0xbd202a29	-0.039102707
168	0x3dc1dcb3	0.09465923
169	0x3d5eb247	0.054369237
170	0x3db8e947	0.09028869
171	0x3cd781f3	0.026307082
172	0x3b9c012f	0.0047608833
173	0x3d670794	0.05640371
174	0xbd1c5f8a	-0.03817705
175	0xbd49c013	-0.049255442
176	0x3d416744	0.047217622
177	0xbd94230f	-0.072332494
178	0xbd894907	-0.06703382
179	0xbdecc974	-0.11561862
180	0xbc569ae3	-0.013098451
181	0x3d84ede8	0.064906895
182	0x3beb0b7f	0.0071730013
183	0x3bb0b025	0.005392092
184	0x3d8ae791	0.06782449
185	0x3dc38323	0.09546497
186	0x3d1336a0	0.035940766
187	0x3d882ea1	0.06649519
188	0x3d28e6d5	0.041235764
189	0x3cf831a3	0.030297106
190	0xbd511ca9	-0.051052723
191	0xbc8cbb1e	-0.017179068
192	0xbdc59291	-0.09647096
193	0x3d272074	0.040802434
194	0xbb2c4654	-0.0026287036
195	0xbce94d13	-0.028479135
196	0x3e2774ba	0.16353121
197	0x3d5306fa	0.051520325
198	0x3d85ca96	0.06532781
199	0x3db171a1	0.08664251
200	0xbda33dc5	-0.07970766
201	0xb9e4894a	-0.00043589837
202	0x3cddac77	0.027059777
203	0x3ba14aa0	0.004922226
204	0xbc9e76ba	-0.019343723
205	0xbe21af1c	-0.15789455
206	0xbd07dcd4	-0.033169582
207	0xbd6d6da2	-0.057965882
208	0xbdacc3d0	-0.08435786
209	0xbd9e19d4	-0.0771977
210	0xbd6a2304	-0.0571623
211	0xbc2b14a3	-0.010441932
212	0xbae5bbe4	-0.0017527309
213	0x3cbd8b9f	0.023137866
214	0x3d0978b4	0.033562377
215	0x3bbb8fca	0.005723928
216	0xbddff136	-0.10934679
217	0xbdb8e3bf	-0.09027814
218	0xbe2bb245	-0.16767223
219	0x3d111a44	0.03542544
220	0x3c434e63	0.011920544
221	0x3c6e049c	0.014527466
222	0x3e364b23	0.178021
223	0xbd88ae0e	-0.06673823
224	0x3ca01bea	0.01954456
225	0xbd2b28de	-0.04178702
226	0xbc349812	-0.0110225845
227	0xbcf7a22c	-0.030228697
228	0xbd272d5f	-0.040814754
229	0xbda23957	-0.07921093
230	0x3d245bb6	0.040126525
231	0xbddac99f	-0.106829874
232	0xbd8d0812	-0.06886305
233	0xbd5ed1ec	-0.054399416
234	0xbc79f58f	-0.0152563
235	0x3c0241c4	0.00795025
236	0xbb039b05	-0.0020081413
237	0xbd41a34e	-0.04727488
238	0x3dea8ce1	0.11452652
239	0xbdb62f53	-0.08895745
240	0x3c8cd783	0.017192608
241	0xbdd9e52d	-0.10639415
242	0xbdd20a27	-0.10255843
243	0xbdca4658	-0.09876698
244	0xbe1a7ac2	-0.15085891
245	0xbda4286a	-0.08015521
246	0xbb7786c9	-0.0037769547
247	0xbd4a4a1b	-0.04938708
248	0xbdfc49f5	-0.12318794
249	0xbd7a1539	-0.061055396
250	0x3d989868	0.07450944
251	0xbe078af7	-0.13236605
252	0x3c05952e	0.008153243
253	0xbdeb63be	-0.11493634
254	0xbdd3563d	-0.10319183
255	0x3d1c1945	0.038110036

bn1.weight f4 [16]
0	0x3ef7f39d	0.4842805
1	0x3f106dbb	0.56417435
2	0x3f203dd5	0.6259435
3	0x3f0c569d	0.5481966
4	0x3f146322	0.57963765
5	0x3f1e6e16	0.6188673
6	0x3f172dd2	0.5905429
7	0x3f20ebc0	0.62859726
8	0x3f2e8bcf	0.6818208
9	0x3f20051f	0.62507814
10	0x3f1333f7	0.5750117
11	0x3f1ec337	0.62016624
12	0x3f044839	0.51672703
13	0x3f0e70bd	0.55640775
14	0x3f1a5e21	0.6029988
15	0x3f15b716	0.5848249

bn1.bias f4 [16]
0	0xbc93ad4a	-0.018026967
1	0x3c98f3e5	0.018670985
2	0x3d0d298c	0.03446345
3	0x3d15d2f7	0.036578145
4	0x3b0fb24a	0.0021926337
5	0xbe097f4b	-0.13427465
6	0xbd793077	-0.060837235
7	0xbd50491c	-0.050850973
8	0x3d8554fa	0.065103486
9	0xbd70a2f4	-0.058749154
10	0x3bd92414	0.0066266153
11	0xbdb7780b	-0.08958443
12	0xbd24653e	-0.040135615
13	0xbdf543c0	-0.11975813
14	0x3cb0cdef	0.021582572
15	0x3d320aa3	0.043467175

bn1.running_mean f4 [16]
0	0x3dbb5f46	0.09149031
1	0x3e124b6e	0.14286587
2	0x3df5ffba	0.120116666
3	0x3da3ea2f	0.08003651
4	0x3e2113a5	0.1573015
5	0x3de6ca92	0.11269106
6	0x3e13da33	0.14438705
7	0x3e19c691	0.15017153
8	0x3e0eb181	0.139349
9	0x3e57f361	0.21088935
10	0x3e2d659c	0.16933292
11	0x3e07bf69	0.13256611
12	0x3dbcb390	0.09213936
13	0x3db0524d	0.08609448
14	0x3deb73ea	0.11496718
15	0x3e2b531b	0.16730921

bn1.running_var f4 [16]
0	0x3cff67fe	0.031177517
1	0x3ddbfb3c	0.107412785
2	0x3d9c5db9	0.07635064
3	0x3d16b5b9	0.036794398
4	0x3dea2fe2	0.11434914
5	0x3d81fed5	0.063474335
6	0x3d8d5af7	0.06902116
7	0x3df70687	0.12061792
8	0x3de1697c	0.11006448
9	0x3d7de71d	0.061987985
10	0x3d198960	0.037484527
11	0x3d1c7a7f	0.03820276
12	0x3d520efc	0.05128382
13	0x3d596872	0.053078122
14	0x3d248ae1	0.040171508
15	0x3ce22504	0.027605541

conv2a.weight f4 [16, 16, 3, 3]
0	0xbd7d16b2	-0.061789222
1	0x3bb871c9	0.0056287986
2	0xbb3594a5	-0.0027707007
3	0xbbb0d4e0	-0.0053964704
4	0x3d0091c3	0.03138901
5	0xbd90aeb8	-0.07064575
6	0xbd380ce5	-0.044934172
7	0xbc85ec36	-0.016347986
8	0xbc53fbfe	-0.012938498
9	0xbd2d8565	-0.042363543
10	0xbd314474	-0.043278173
11	0xbc8bf8a0	-0.017086327
12	0xbcb99b8b	-0.022657176
13	0xbb30f541	-0.0027001651
14	0x3d2e2479	0.04251525
15	0xbcd76362	-0.026292507
16	0xbd05839b	-0.032596212
17	0x3ca2c4b5	0.019869188
18	0xbdb66077	-0.08905118
19	0xbc25280f	-0.0100803515
20	0xbcd32c5f	-0.025777994
21	0xbd96c14e	-0.07361089
22	0xbd40056b	-0.046880167
23	0x3ba90acc	0.005158758
24	0xbd26b1c4	-0.040696874
25	0xbc87e106	-0.016586792
26	0x392266ff	0.00015487893
27	0xbcbad745	-0.022807727
28	0xbd44e5d5	-0.048070747
29	0xbd923a89	-0.07140071
30	0xbd3db136	-0.04631158
31	0xbc55c5fe	-0.013047693
32	0x3c4f2f48	0.01264555
33	0x3c903965	0.017605493
34	0xbb9da24e	-0.004810608
35	0x3d07998c	0.033105418
36	0xbc7da27b	-0.015480633
37	0x3b5bd597	0.0033544058
38	0xbd2dd017	-0.042434778
39	0xbb83fa84	-0.0040276665
40	0x3bcef86c	0.0063162353
41	0x3d1c7e71	0.03820652
42	0x3bfa970b	0.0076474003
43	0x3d70ace7	0.058758643
44	0x3d01084a	0.031502046
45	0xbd8411bb	-0.06448694
46	0xbd6027be	-0.0547254
47	0xbd5726de	-0.0525273
48	0xbc82dbd1	-0.015973957
49	0x3bd45a1a	0.0064804675
50	0xbc2f951a	-0.010716701
51	0x3d7aebde	0.061260097
52	0x3d0a97a3	0.03383602
53	0x3c844619	0.016146706
54	0xbd0bfe52	-0.034178086
55	0xbc102c9e	-0.0087997
56	0xbcf44816	-0.02981953
57	0xbcaec708	-0.02133514
58	0x3d863bcd	0.06554375
59	0xbdd6fe71	-0.104977496
60	0xbd0c5e06	-0.034269355
61	0x3cd77d9e	0.026305016
62	0x3d0945f0	0.033513963
63	0xbd53fdf4	-0.05175586
64	0xbd4c258d	-0.0498405
65	0xbdc6bbd4	-0.09703794
66	0xbd8cad3b	-0.068689786
67	0x3be4c775	0.006981785
68	0x3c1e398e	0.009657277
69	0xbd8dd375	-0.06925098
70	0x3cd8e53c	0.026476495
71	0x3d9d8240	0.07690859
72	0xbd8b55d0	-0.06803477
73	0xbd45fda8	-0.04833761
74	0xbd9660e8	-0.07342702
75	0xbb8ad24d	-0.0042364956
76	0x3a0df19c	0.0005414726
77	0x3d8bcb29	0.06825859
78	0xbb123b76	-0.0022313274
79	0x3d7454d4	0.05965121
80	0x3dcd8c29	0.10036499
81	0xbd64cbb5	-0.055858333
82	0xbd61524d	-0.05501013
83	0xbccad1a6	-0.024758171
84	0x3d442a62	0.047891982
85	0xbc301900	-0.010748148
86	0xbc2e6799	-0.010644817
87	0xbd86fa11	-0.06590665
88	0xbc33b67f	-0.010968803
89	0x3d4ae996	0.04953917
90	0x3bedd281	0.00725776
91	0xbd5aa350	-0.053378403
92	0xbd809d8f	-0.06280052
93	0xbd0bac58	-0.034099907
94	0x3c9d2c60	0.019186199
95	0x3c86b8ce	0.016445544
96	0x3dc5968e	0.09647857
97	0xbcb8e99e	-0.022572335
98	0x3dee32a5	0.116307534
99	0x3ca892cd	0.020577813
100	0xbd8898c5	-0.066697635
101	0xbddf8868	-0.10914689
102	0x3ca3eef6	0.020011406
103	0x3d0fe164	0.03512706
104	0x3dc66411	0.09687055
105	0x3c9fd1df	0.019509254
106	0x3df216fb	0.118207894
107	0x3d94dd19	0.072687335
108	0x3ca68575	0.02032731
109	0xbcb96771	-0.022632333
110	0xbdc324d5	-0.095285095
111	0xbccc61e1	-0.024949016
112	0x3d115f11	0.035491053
113	0xbd9e7f01	-0.07739068
114	0xbc78ee31	-0.015193508
115	0x3c8a4ce0	0.01688236
116	0xbd49c1aa	-0.049256958
117	0xbcde9ecf	-0.027175335
118	0xbd916e07	-0.07101064
119	0xbd5f13d8	-0.054462284
120	0x3c9b412c	0.018951975
121	0xbca70b82	-0.02039123
122	0xbd25130c	-0.040301368
123	0xbcf55d53	-0.029951727
124	0x3d96afe4	0.07357767
125	0x3d9bb393	0.076026104
126	0xbdc6df89	-0.09710605
127	0xbcb6c97b	-0.02231287
128	0x3b7bdd86	0.0038431599
129	0xbcb0ff7a	-0.021606196
130	0x3cceef5c	0.02526062
131	0xbcc0ef83	-0.023551708
132	0xbd83203e	-0.06402634
133	0x3d6332f1	0.055468503
134	0x3dd02c56	0.101647064
135	0xbcf349bb	-0.029698243
136	0xbd6c99c2	-0.057763822
137	0xbd038f95	-0.032119352
138	0xbc6fbe36	-0.014632752
139	0xbcbf2e9b	-0.023337653
140	0xbca2b875	-0.019863347
141	0x3db3246a	0.0874718
142	0x3cfe59ae	0.031048622
143	0xbc3fa64e	-0.011697365
144	0xbd752c5e	-0.059856765
145	0xbd346155	-0.044038136
146	0xbdda1e7a	-0.10650344
147	0xbd9aa545	-0.07551054
148	0xbd58218b	-0.052766364
149	0xbdaac2f5	-0.08337966
150	0x3d3b15c1	0.045675043
151	0x3d6f5447	0.058429983
152	0xbb8e6d6a	-0.0043465393
153	0x3827af80	3.997935e-05
154	0xbd53bf47	-0.05169609
155	0x3d7b1177	0.061295953
156	0x3d4ad8a4	0.04952301
157	0x3c08c514	0.008347768
158	0x3d7f1b46	0.06228187
159	0xbcd7d229	-0.02634533
160	0xbce558ad	-0.027996385
161	0xbcbab6e6	-0.02279229
162	0x3c73b6e4	0.0148751475
163	0x3c6b3d4c	0.014357876
164	0x3dda24b8	0.10651535
165	0xbd0e9103	-0.034806263
166	0xbd17ea96	-0.037088953
167	0xbde75a61	-0.11296535
168	0xbd9887fc	-0.07447812
169	0xbdb99096	-0.09060781
170	0xbe2c3415	-0.16816743
171	0x3dd6e8b8	0.10493606
172	0x3cc3ea59	0.023915457
173	0xbd0ba98f	-0.03409725
174	0x3d89fe9d	0.06738017
175	0xbcbf5597	-0.023356242
176	0x3cab5654	0.020915188
177	0xbbb5d4c8	-0.005549047
178	0xbd72a4a3	-0.05923904
179	0x3b25d22d	0.0025302276
180	0x3ce6558b	0.028116962
181	0xbc5961f2	-0.013267981
182	0xbb04be54	-0.0020255046
183	0x3db14999	0.08656616
184	0x3d8be3c1	0.0683055
185	0xbd89aaad	-0.06722007
186	0xbd11200c	-0.035430953
187	0xbc52355a	-0.012830103
188	0x3ce55d74	0.027998663
189	0x3d53be78	0.051695317
190	0x3b9fcd01	0.0048767333
191	0xbdd2020a	-0.10254295
192	0xbc84b3f1	-0.016199084
193	0xbd5234db	-0.05131994
194	0xbe2598ed	-0.16171618
195	0xbcfa24d4	-0.03053514
196	0x3c258011	0.010101334
197	0xbd71970d	-0.058981944
198	0xbc698433	-0.01425271
199	0xbd3f5289	-0.04670957
200	0xbd9c989e	-0.07646297
201	0xbc46ae11	-0.012126462
202	0x3c1061bb	0.008812363
203	0x3b5a95c0	0.0033353418
204	0xbd9f42f0	-0.07776439
205	0xbcf37a4a	-0.029721398
206	0xbd85ab1f	-0.065267794
207	0xbe109f94	-0.14123374
208	0xbd5d5112	-0.054032393
209	0xb93f9ea4	-0.00018274278
210	0xbd9e233a	-0.07721563
211	0x3d54d114	0.051957205
212	0x3b54cf13	0.0032472059
213	0xbccbbf35	-0.024871448
214	0x3d13f2a8	0.036120087
215	0x3d7017ac	0.058616325
216	0x3d60b0ca	0.0548561
217	0x3d038a6b	0.032114428
218	0x3d8b6c8a	0.068078116
219	0xbd13f086	-0.036118053
220	0x3d774580	0.060369015
221	0x3ccb29d9	0.024800228
222	0xbd7ae304	-0.061251655
223	0x3cb0ba28	0.021573141
224	0x3d366c44	0.044536844
225	0x3c0b4c79	0.008502119
226	0x3c264281	0.010147692
227	0x3d94bf07	0.07262998
228	0xbdd1d209	-0.10245139
229	0xbd4aaae7	-0.04947939
230	0x3decb72e	0.11558376
231	0xbdebe3de	-0.115180716
232	0xbd9e62e9	-0.07733709
233	0xbdfd0b12	-0.12355627
234	0x3d9bf539	0.07615132
235	0x3dc61963	0.09672811
236	0x3d858373	0.065192126
237	0x3d3af0a0	0.045639634
238	0xbcdc1d19	-0.026869344
239	0xbd72d58d	-0.05928569
240	0xbc140037	-0.009033254
241	0xba4eac66	-0.0007883966
242	0x3ccf6280	0.025315523
243	0xbd249eb8	-0.04019043
244	0x3d38c5d4	0.04511054
245	0x3d17bc34	0.03704472
246	0xbd2af7cf	-0.041740235
247	0xbd3fbaf3	-0.046809148
248	0xbd91f4fe	-0.07126807
249	0x3d1050d4	0.035233334
250	0x3d101c27	0.0351831
251	0x3caba8db	0.02095454
252	0xbd2f93bb	-0.042865496
253	0xbda89c98	-0.08232993
254	0x3c708b38	0.01468163
255	0xbd01ee6a	-0.03172151

bn2a.weight f4 [16]
0	0x3f1c24c8	0.60993624
1	0x3f1b86ae	0.6075238
2	0x3f18e06d	0.59717447
3	0x3f10d6f2	0.5657798
4	0x3f0499a1	0.5179692
5	0x3f1fb99a	0.6239258
6	0x3f0fe1a1	0.5620366
7	0x3f2bef78	0.67162275
8	0x3f1ac2a2	0.60453236
9	0x3f1b9442	0.607731
10	0x3f049d34	0.5180237
11	0x3f0f2c85	0.55927306
12	0x3f174d61	0.59102446
13	0x3f0fc119	0.5615402
14	0x3f118d34	0.56856084
15	0x3f1686aa	0.5879923

bn2a.bias f4 [16]
0	0x3c1328a8	0.008981861
1	0x3d1bf97c	0.038079724
2	0x3e256925	0.1615339
3	0xbb16919c	-0.0022974974
4	0x3ce2727d	0.027642483
5	0x3d6c6a21	0.0577184
6	0x3e036b35	0.12833865
7	0xbd1b5310	-0.03792101
8	0x3e15ea2b	0.14640109
9	0x3e82ad0b	0.25522646
10	0xbd42263b	-0.04739974
11	0x3d22f5fe	0.039785378
12	0x3e1fa184	0.15588957
13	0xbce9fd57	-0.028563185
14	0xbdb0fefd	-0.08642385
15	0x3dd927f3	0.10603323

bn2a.running_mean f4 [16]
0	0x3e5a430c	0.21314639
1	0x3ea5d7a7	0.32391092
2	0x3e64c7df	0.2234187
3	0x3e84e900	0.25959015
4	0x3f0c90dd	0.54908544
5	0x3e6944bc	0.22780126
6	0x3ebd9661	0.37028793
7	0x3e506ba9	0.20353569
8	0x3e8f18bf	0.27948567
9	0x3ec24df3	0.37950096
10	0x3e46138a	0.19343391
11	0x3e4e2a0c	0.20133227
12	0x3e7c568d	0.24642392
13	0x3ecf88f9	0.4053419
14	0x3f040212	0.5156566
15	0x3ebb4ff7	0.36584446

bn2a.running_var f4 [16]
0	0x3e291421	0.16511585
1	0x3e9f947b	0.3116797
2	0x3e68f87c	0.2275104
3	0x3e6eb6a7	0.23311864
4	0x3f2aa925	0.66664344
5	0x3e58b320	0.21162081
6	0x3ee3f96e	0.44526237
7	0x3e0c73c3	0.13716035
8	0x3e92d8b7	0.28680965
9	0x3ef78be4	0.48348916
10	0x3e1cd7b9	0.15316667
11	0x3e25f8fb	0.1620826
12	0x3e7eb4dd	0.24873681
13	0x3ee46f75	0.44616285
14	0x3f3311be	0.6994895
15	0x3eeb92d0	0.46010447

conv2b.weight f4 [32, 16, 3, 3]
0	0xbd3be019	-0.045868013
1	0xbc1c0d10	-0.009524599
2	0xbad9f326	-0.001662825
3	0x3d2a19fd	0.04152869
4	0x3c847993	0.016171252
5	0x3d9ac861	0.075577505
6	0xbd5ec6a3	-0.054388653
7	0xbce3c6d4	-0.02780477
8	0x3c65e752	0.014032202
9	0x3d07ae1e	0.033125035
10	0xbb855b97	-0.0040697563
11	0x3be69e94	0.007037947
12	0x3daac34f	0.083380334
13	0x3d60fbf1	0.05492777
14	0xbcb8b354	-0.022546448
15	0x3d60a8f2	0.05484862
16	0xbc2cd9cb	-0.010549973
17	0xbd2fc6e3	-0.042914283
18	0xbcb2e85d	-0.021839315
19	0xbd84f66d	-0.064923145
20	0xbd5ce2b3	-0.053927135
21	0x3c9090eb	0.017647227
22	0xbd81e9f1	-0.06343449
23	0xbceb67ec	-0.028736077
24	0x3d3a7ab3	0.04552717
25	0xbd2781ab	-0.040895145
26	0xbbe2f341	-0.006925971
27	0xbd628cad	-0.05530994
28	0xbcb2b13f	-0.021813033
29	0xbd64bffe	-0.05584716
30	0x3cfa1dfc	0.030531876
31	0xbd80a0f6	-0.06280701
32	0xbd7d1b96	-0.061793886
33	0xbc4b02c4	-0.012390796
34	0xbcafeeda	-0.021476198
35	0xbcb86402	-0.022508625
36	0x3d0d4e4a	0.03449849
37	0x3c1e7827	0.009672201
38	0x3d1cbfff	0.03826904
39	0x3d9e82b2	0.07739772
40	0x3d39dcb4	0.045376495
41	0xbc9986cb	-0.018741032
42	0x3d724414	0.059146956
43	0x3d079479	0.03310058
44	0x3ca47655	0.020075956
45	0x3d80c000	0.06286621
46	0xbd4c9078	-0.049942464
47	0xbc883770	-0.016627997
48	0xbd90bd70	-0.07067382
49	0x3cecdfd8	0.02891533
50	0xbd22136c	-0.039569303
51	0xbca617cb	-0.020275017
52	0xbd2202fc	-0.039553627
53	0x3c1e83c9	0.009674975
54	0x3d5679e5	0.05236234
55	0xbc1a5f85	-0.009422188
56	0xbd29aedf	-0.041426536
57	0x3d9641e6	0.07336788
58	0x3d259ed7	0.040434685
59	0x3dcbd6fe	0.09953116
60	0x3d611b62	0.054957755
61	0xbceb2fb5	-0.028709272
62	0x3ca82aa8	0.020528153
63	0x3c3911fa	0.01129579
64	0x3be35bff	0.006938457
65	0xbd7c8838	-0.061653346
66	0x3d34e340	0.044162035
67	0x3c3a41bc	0.011368211
68	0x3dab3004	0.08358768
69	0x3cf5cd58	0.030005142
70	0x3b7bd228	0.0038424823
71	0x3d11dc79	0.03561065
72	0x3dcf1ab0	0.10112512
73	0x3d357417	0.044300165
74	0x3c90295c	0.017597847
75	0x3d21ea9c	0.03953038
76	0xbc2a4bd8	-0.010394059
77	0x3ca18341	0.019715907
78	0x3cacace8	0.021078542
79	0x3d36cc1a	0.04462824
80	0xbc297e1b	-0.010345007
81	0x3d8c1789	0.068404265
82	0xbd7de96e	-0.061990194
83	0xbdabc371	-0.08386887
84	0xbda6cd1e	-0.08144592
85	0xbd4f0479	-0.050541375
86	0xbd0e7d00	-0.034787178
87	0xbc2d3442	-0.010571541
88	0x3cbed31c	0.023294024
89	0xbcc41499	-0.023935603
90	0x3da41c5d	0.08013222
91	0xbd1f846e	-0.038944654
92	0xbd48fdea	-0.049070276
93	0x3ca1d9d4	0.019757189
94	0xbd9f185c	-0.07768318
95	0xbd85c2ae	-0.06531273
96	0x3d44db83	0.048060905
97	0x3bb36308	0.005474452
98	0xbd22bcbf	-0.039730784
99	0xbd7055b8	-0.058675498
100	0xbd1efedb	-0.038817268
101	0xbcc48220	-0.02398783
102	0xbb5ba92a	-0.0033517578
103	0xbc40d374	-0.011769164
104	0xbd8ba380	-0.068182945
105	0xbd8a1224	-0.06741741
106	0xbd90328a	-0.070408896
107	0xbdbdb58d	-0.09263144
108	0x3daf3ae2	0.08556153
109	0x3d3cef03	0.046126377
110	0xbcf354f8	-0.029703602
111	0x3b916de3	0.0044381483
112	0xbce17755	-0.027522722
113	0xbd88ad7b	-0.06673714
114	0xbd1f14ab	-0.03883807
115	0xbdc17f57	-0.09448116
116	0xbcced19f	-0.02524644
117	0xbc8dd89b	-0.0173152
118	0xbc973183	-0.018456226
119	0xbd678f3f	-0.056533094
120	0xbb2b9d98	-0.0026186462
121	0xbcc316ed	-0.023814643
122	0xbd6b1899	-0.057396505
123	0x3c152fe8	0.00910566
124	0x3c12c26f	0.008957489
125	0xbc9e38e6	-0.01931424
126	0xbb9ecad2	-0.0048459554
127	0xbafa523a	-0.0019097992
128	0xbd0c310a	-0.034226455
129	0xbc1444c9	-0.009049603
130	0xbd209ac0	-0.03921008
131	0xbc2b08a0	-0.010439068
132	0x3d95ddd5	0.07317702
133	0x3cc6c86c	0.02426549
134	0xbbbafe66	-0.005706596
135	0x3ad108cb	0.0015948055
136	0x3bcf396e	0.006323985
137	0xbd8cae40	-0.06869173
138	0xbd6d34eb	-0.057911795
139	0xbd1b8dfe	-0.03797721
140	0xbdc418ea	-0.095750645
141	0xbd73a734	-0.05948563
142	0xbd07f708	-0.03319457
143	0xbd9a5f6b	-0.07537731
144	0x3d2971c0	0.041368246
145	0xbcf4ebd6	-0.029897612
146	0xbd899352	-0.06717552
147	0xbc239409	-0.009984025
148	0x3d62a0e3	0.055329215
149	0x3b8c5f0a	0.0042837905
150	0xbd651c67	-0.05593529
151	0xbdb3bf24	-0.087766916
152	0x3ceac132	0.028656576
153	0xbdda530e	-0.10660373
154	0xbd86f505	-0.065897025
155	0x3d124c0f	0.035717066
156	0xbd362cfe	-0.0444765
157	0xbd0ea34d	-0.034823705
158	0x3b574efe	0.003285348
159	0xb7a46eaa	-1.9601855e-05
160	0x3cb44e0b	0.02200987
161	0x3d0785ac	0.033086464
162	0xbdaff439	-0.08591504
163	0x3d9c66aa	0.07636769
164	0xbc8e1739	-0.017345058
165	0xbe0e9fed	-0.13928194
166	0xbc1e04fe	-0.009644745
167	0xbd5856a2	-0.052816994
168	0xbda43cb1	-0.080193885
169	0x3c2df99f	0.010618596
170	0x3cde3236	0.027123552
171	0x3be44097	0.0069657075
172	0x3d33ad85	0.043866653
173	0x3d953be7	0.07286816
174	0x3c403f9c	0.011733916
175	0x3d8f6d3c	0.07003257
176	0xbc090e4f	-0.008365228
177	0x3c2ccdf4	0.01054715
178	0xbc8a4519	-0.016878651
179	0x3d1e6061	0.038666133
180	0xbd0ab107	-0.033860233
181	0xbd130d9e	-0.03590166
182	0x3d6dfa1b	0.058099847
183	0xbd36f44f	-0.044666585
184	0xbdcf898e	-0.10133658
185	0xbdf0fd6a	-0.11767085
186	0xbcefeba4	-0.029287167
187	0xbc594b4e	-0.013262583
188	0xbd1d572f	-0.038413223
189	0xbd62c9d5	-0.055368263
190	0xbd6f9ed6	-0.058501087
191	0x3d1199b1	0.035546962
192	0xbd7330f2	-0.05937285
193	0xbd7d6709	-0.06186584
194	0xba4b9a88	-0.00077668624
195	0x3da7bdb3	0.08190479
196	0xbaf007b2	-0.001831284
197	0x3da162ec	0.07880196
198	0xbc4ce91e	-0.012506751
199	0x3c19ec60	0.009394735
200	0x3d09c697	0.033636656
201	0xbd9f47ca	-0.077773646
202	0x3d081ec7	0.033232477
203	0x39d7504c	0.0004106782
204	0x3d0b2763	0.03397311
205	0xbca2e076	-0.019882422
206	0xbdbfcae5	-0.09364871
207	0x3cd784d1	0.026308449
208	0x3d5db8ae	0.054131202
209	0x3d579a38	0.05263731
210	0x3dcc90d3	0.099885605
211	0x3d828b92	0.06374277
212	0x3d3c22d4	0.045931652
213	0x3d4e90a6	0.050430916
214	0x3c92d0e3	0.01792187
215	0xbd7d7258	-0.061876625
216	0xbd1f8935	-0.03894921
217	0xbd6f034e	-0.05835276
218	0x3d9e1257	0.07718342
219	0x3d34cb73	0.044139337
220	0x3d8c8469	0.06861193
221	0x3d2f00f0	0.042725503
222	0x3c7510ff	0.0149576655
223	0xbb7bbbba	-0.0038411454
224	0xbc0ac2d2	-0.0084693
225	0xbcd141fc	-0.02554416
226	0x3ca4a83d	0.020099754
227	0x3cff9ace	0.031201746
228	0xbd52d178	-0.051469296
229	0xbc125fef	-0.008934005
230	0x3c802488	0.01564242
231	0xbbf77044	-0.007551225
232	0xbbf3ce04	-0.0074403305
233	0x3c44c605	0.012010102
234	0xbc4e042f	-0.01257424
235	0xbcbf909c	-0.023384385
236	0xbc5392de	-0.012913434
237	0xbd896292	-0.06708254
238	0x3d3a5b2e	0.045497112
239	0xbcc91f71	-0.024551125
240	0x3c484181	0.012222649
241	0x3d88e47b	0.06684204
242	0x3da32c73	0.079674624
243	0x3d0a1f59	0.0337213
244	0xb8bca240	-8.99476e-05
245	0xbd89e289	-0.06732661
246	0x3dbee2e3	0.09320619
247	0x3db87184	0.090060264
248	0xbc187361	-0.009304852
249	0x3e326140	0.1741991
250	0x3d9f6420	0.07782769
251	0xbbc10cb4	-0.005891407
252	0x3d224fda	0.039626934
253	0xbd7731d7	-0.060350265
254	0x3d5377ba	0.051627852
255	0xbcb58611	-0.022158654

bn2.weight f4 [32]
0	0x3f10220d	0.5630196
1	0x3f0d1420	0.55108833
2	0x3f26d64a	0.6517073
3	0x3f1d87d8	0.61535406
4	0x3f1682c1	0.58793265
5	0x3f1d6a8a	0.6149069
6	0x3f101ef3	0.56297225
7	0x3f23cfa6	0.6398872
8	0x3f1459a4	0.5794928
9	0x3f24c524	0.6436331
10	0x3f179c45	0.59222823
11	0x3f176898	0.5914397
12	0x3f13a69b	0.57676095
13	0x3f179cce	0.5922364
14	0x3f1c2bec	0.6100452
15	0x3f0ef4d6	0.5584234
16	0x3f12652c	0.57185626
17	0x3f16e232	0.58938897
18	0x3f1748ae	0.59095275
19	0x3f0bfeca	0.5468565
20	0x3f12c39d	0.5732973
21	0x3f1430cd	0.57886964
22	0x3f0f4c38	0.55975676
23	0x3f107bbf	0.5643882
24	0x3f150488	0.5821004
25	0x3f1b2ea8	0.60618067
26	0x3f1338fa	0.57508814
27	0x3f1f5934	0.6224549
28	0x3f191e41	0.5981179
29	0x3f1dea59	0.6168571
30	0x3f121226	0.5705894
31	0x3f158684	0.5840838

bn2.bias f4 [32]
0	0xbcc2e495	-0.023790637
1	0xbbfcd3f4	-0.0077156965
2	0xbc1eb821	-0.009687454
3	0xbd989707	-0.07450681
4	0x3d1b3f39	0.03790209
5	0xbccc08db	-0.024906566
6	0xbca54ec6	-0.020179164
7	0xbc89e953	-0.01683489
8	0xbc280b3f	-0.0102565875
9	0x3d6530c0	0.055954695
10	0xbd2e0662	-0.042486556
11	0xba865db6	-0.0010251317
12	0xbcce4eaf	-0.025184004
13	0xbc67b592	-0.014142411
14	0xbc4e17d8	-0.012578927
15	0xbd6268ba	-0.055275656
16	0xba424c98	-0.0007411926
17	0xbd59831d	-0.053103555
18	0xbb1ef0c3	-0.0024252392
19	0xbce84185	-0.028351555
20	0xbd629bf9	-0.05532453
21	0xbc8f6968	-0.017506316
22	0xbda06a1b	-0.07832738
23	0xbd5375a6	-0.05162587
24	0xbcdf75dd	-0.027277881
25	0x398a3f4b	0.00026368568
26	0xbd1accdb	-0.03779302
27	0xbb88383c	-0.0041570943
28	0xbc891f50	-0.016738564
29	0xbd4712aa	-0.048601784
30	0xbd71a2b8	-0.05899307
31	0xbcf56cb7	-0.029959066

bn2.running_mean f4 [32]
0	0x3de489ef	0.11159121
1	0x3de5f24b	0.11227854
2	0x3e888976	0.26667374
3	0x3de1e51d	0.11030028
4	0x3e074b2e	0.13212273
5	0x3e283148	0.1642505
6	0x3e0addaa	0.1356112
7	0x3dac6f21	0.08419634
8	0x3e2b4cd0	0.1672852
9	0x3d94c162	0.07263447
10	0x3d83db84	0.06438354
11	0x3dce7a14	0.10081878
12	0x3e466890	0.19375825
13	0x3e0dc160	0.13843298
14	0x3e17c1ac	0.14819974
15	0x3dc069de	0.093951926
16	0x3e0b4864	0.13601834
17	0x3e504f20	0.20342684
18	0x3dc5c5cc	0.096568674
19	0x3e3c6d96	0.18401179
20	0x3e660d7f	0.22466086
21	0x3e02e224	0.12781578
22	0x3de20061	0.110352285
23	0x3dd3cc0e	0.10341655
24	0x3dd91e23	0.10601451
25	0x3daace8c	0.08340177
26	0x3dfb23ff	0.12262725
27	0x3e1d9852	0.15390137
28	0x3de2f72d	0.11082301
29	0x3dc1605e	0.09442209
30	0x3d987784	0.07444671
31	0x3dd67b63	0.10472753

bn2.running_var f4 [32]
0	0x3d20b1e5	0.039232153
1	0x3d2b526c	0.04182665
2	0x3e238226	0.15967616
3	0x3d5d9ae0	0.05410278
4	0x3d332a3c	0.04374145
5	0x3da39af6	0.07988541
6	0x3d3157e0	0.043296695
7	0x3d20bcd1	0.03924257
8	0x3d85ef91	0.06539834
9	0x3cc7990f	0.024364976
10	0x3cad6d14	0.021170177
11	0x3d0b7cf4	0.03405471
12	0x3d9641a7	0.07336741
13	0x3d599768	0.053122908
14	0x3daefd46	0.08544402
15	0x3d24606d	0.04013102
16	0x3d8aba4c	0.067738146
17	0x3dbfe02b	0.093689285
18	0x3d13e951	0.03611118
19	0x3db1f8f7	0.086900644
20	0x3e09baf0	0.13450217
21	0x3d4b57b7	0.0496442
22	0x3d36a4ec	0.044590876
23	0x3d23a4de	0.03995215
24	0x3d5cc5a9	0.05389944
25	0x3cee5d8d	0.029097343
26	0x3d5af2f0	0.05345434
27	0x3d81b4a6	0.06333284
28	0x3d34ade2	0.04411114
29	0x3d10a30e	0.03531175
30	0x3cefb34a	0.029260296
31	0x3d246a95	0.040140707

conv3.weight f4 [32, 32, 3, 3]
0	0x3c3f5acc	0.0116793625
1	0xbd2b427e	-0.04181146
2	0x3cf728b6	0.03017078
3	0xbc7b1624	-0.015325103
4	0xbc559c7f	-0.0130378
5	0xbbe3d0db	-0.0069523877
6	0xbc769c12	-0.0150518585
7	0x3c0bf295	0.008541723
8	0x3bb30ac2	0.005463929
9	0xbbd23b50	-0.006415762
10	0xbc518c21	-0.012789757
11	0xbd0de5b0	-0.034642875
12	0xbd128c6d	-0.03577845
13	0xbd623440	-0.05522561
14	0xbc026492	-0.007958548
15	0xbba07c6f	-0.004897646
16	0x3bc01a7e	0.005862533
17	0x3d33eca5	0.043926854
18	0xbdd10d51	-0.10207618
19	0xbd84f476	-0.0649194
20	0xbd097cde	-0.03356635
21	0xbc8fa176	-0.017533045
22	0xbcb44566	-0.022005748
23	0xbd74b9de	-0.05974757
24	0x3d201765	0.03908481
25	0x3c21b38a	0.009869466
26	0xbcb3b242	-0.021935586
27	0x3c004468	0.007828809
28	0x3c532d7b	0.012889261
29	0x3bd6a005	0.0065498375
30	0x3c324ee1	0.010883064
31	0x3c4463e8	0.01198671
32	0xbd4c415b	-0.049867015
33	0xbc0ab5ec	-0.008466225
34	0xbd135d3c	-0.035977587
35	0xbd11e525	-0.03561892
36	0xbcc1e56f	-0.023668973
37	0xbd1c41fa	-0.038148858
38	0xbda27f46	-0.07934432
39	0xbd20da51	-0.039270703
40	0xbc849f70	-0.016189307
41	0x3c9d99eb	0.019238433
42	0x3c77dd3e	0.015128432
43	0x3bc6763e	0.006056576
44	0x3da56237	0.080753736
45	0xbdf328be	-0.11873005
46	0xbd90322b	-0.07040819
47	0xbabb66d4	-0.0014297613
48	0x3bff8402	0.007797719
49	0xbaab6752	-0.0013077057
50	0x3b9bc0a7	0.0047531906
51	0x3c0b75e4	0.008511994
52	0x3c1cf5ec	0.009580117
53	0xbc14365f	-0.009046166
54	0x3c6c49f7	0.0144219315
55	0x3d937b42	0.07201244
56	0xbb6a22d6	-0.003572633
57	0xbbf98793	-0.0076150387
58	0xbd088b06	-0.033335708
59	0xbd0daf73	-0.03459115
60	0xbd22ddba	-0.039762236
61	0x3cc778f9	0.024349676
62	0x3ce2900c	0.027656578
63	0xbcf03e55	-0.029326597
64	0xbd658294	-0.056032732
65	0xbc4444dd	-0.011979309
66	0x3d4ef132	0.05052299
67	0x3d07affd	0.03312682
68	0xbc59f58c	-0.013303172
69	0x3d1653e6	0.036701106
70	0xbcd6091a	-0.026127387
71	0xbcd41300	-0.025887966
72	0xbce54bea	-0.0279903
73	0xbab55002	-0.0013833048
74	0xbd7fc2c7	-0.062441614
75	0x3c27164c	0.010198187
76	0x3be425cc	0.0069625136
77	0xbd93971b	-0.072065555
78	0xbca560c4	-0.020187743
79	0x3b0e5315	0.0021717001
80	0x3cd7b7c0	0.026332736
81	0x3d51811b	0.051148515
82	0x396d4129	0.00022626355
83	0xbd6b31df	-0.057420608
84	0x3d655e83	0.055998337
85	0xbcc5c0ff	-0.02413988
86	0xbb8f3adc	-0.0043710303
87	0x3d19a868	0.03751412
88	0x3d096eba	0.033552863
89	0x3d7b677d	0.06137799
90	0x3d0ab24e	0.03386145
91	0xbd878141	-0.0661645
92	0xbd9ce2c9	-0.07660443
93	0x3cc432a8	0.023949936
94	0xbc97b44f	-0.018518595
95	0xbd27c1a4	-0.040956154
96	0x3cb8b308	0.022546306
97	0xbd53edd7	-0.051740494
98	0xbcc17cc8	-0.02361907
99	0x3d688733	0.05676956
100	0xbcb58d15	-0.022162
101	0xbdcaae6a	-0.09896548
102	0x3b8c4047	0.0042801234
103	0x3c272910	0.010202661
104	0x3c9d651f	0.019213257
105	0xbc7abebf	-0.0153042665
106	0xbd315be3	-0.04330052
107	0xbcf8117c	-0.030281775
108	0x3cf14c76	0.029455405
109	0xbb96240f	-0.0045819352
110	0xbc59e02f	-0.013298078
111	0x3caa0f4b	0.020759245
112	0xbd8598f5	-0.06523315
113	0xbc87667a	-0.016528357
114	0xbba6f525	-0.0050951415
115	0xbcefea61	-0.029286565
116	0xbcf10311	-0.029420407
117	0xbd14e97b	-0.036355477
118	0xbe0ab16b	-0.13544242
119	0xbcad0496	-0.02112035
120	0xbc94e569	-0.018175798
121	0xbd437a4e	-0.04772406
122	0xbc153063	-0.009105775
123	0x3bc0a319	0.0058788178
124	0xbb3368ca	-0.0027375692
125	0x3d0a68d2	0.03379137
126	0xbbb984ec	-0.0056615975
127	0x3d2519b4	0.040307716
128	0x3d3b5d68	0.045743376
129	0x3d025117	0.031815615
130	0x3c710018	0.014709495
131	0x3cd79c07	0.026319517
132	0x3cda0be4	0.026616998
133	0xbd0288e1	-0.03186882
134	0xbd9d0713	-0.07667365
135	0x3c9d2ad3	0.01918546
136	0x3d19b310	0.037524283
137	0xbca1f65d	-0.019770795
138	0x3d8ae8b6	0.06782667
139	0x3c0c50eb	0.008564214
140	0xb74081e0	-1.1474331e-05
141	0x3d3c0603	0.04590417
142	0x3c82041a	0.015871096
143	0x3c3447fe	0.011003492
144	0xbd2c2991	-0.04203183
145	0xbbad32e9	-0.00528561
146	0xbbfacb1b	-0.0076536066
147	0xbcc7af7e	-0.024375673
148	0xbb0cf676	-0.0021509207
149	0x38d7bb90	0.00010286935
150	0x3cb3fb76	0.021970492
151	0x3d65149a	0.05592785
152	0xbbb95ebc	-0.005657045
153	0xbcb813b3	-0.02247033
154	0xbc816c2e	-0.015798654
155	0x3d58e14d	0.05294924
156	0xbc803417	-0.015649838
157	0x3ce113f5	0.027475337
158	0xbb86077b	-0.004090247
159	0x3d1a95fa	0.037740685
160	0x3c313638	0.010816149
161	0xbb033ae2	-0.002002411
162	0xbce570bd	-0.02800786
163	0x3c8d29c3	0.017231828
164	0x3d8104e6	0.062997624
165	0xbd1bdbcb	-0.038051408
166	0xbc261dac	-0.01013891
167	0x3d8d7046	0.0690618
168	0xbc3da6bd	-0.011575398
169	0x3c01c551	0.007920579
170	0xbcf1130e	-0.029428031
171	0x3caa9b63	0.020826047
172	0xbaa3000e	-0.0012435929
173	0x3c9773f0	0.0184879
174	0x3c723a1e	0.014784364
175	0xbc2db6d9	-0.010602676
176	0xbda92a26	-0.08259992
177	0xba18e3ea	-0.00058323017
178	0xbc9eea2c	-0.019398771
179	0x3bd47f8b	0.006484931
180	0xbdd86ce0	-0.10567641
181	0xbd7022c7	-0.058626916
182	0xbd22ff9b	-0.039794546
183	0xbd18d86d	-0.037315775
184	0x3b370aeb	0.0027930092
185	0xbc943ee5	-0.018096397
186	0xbc18239d	-0.009285835
187	0xbc652f67	-0.013988352
188	0x3b9373d4	0.004499892
189	0x3d649357	0.055804577
190	0x3d3c7d19	0.04601774
191	0x3d547c06	0.05187609
192	0x3cf2036a	0.029542644
193	0xbc236fc8	-0.009975381
194	0xbcf9f1f0	-0.030510873
195	0x3ce26543	0.027636176
196	0xba175990	-0.0005773539
197	0xbd978b10	-0.07399571
198	0xbcd5988e	-0.02607372
199	0x3caedb92	0.021344934
200	0x3d429029	0.047500763
201	0x3ce58b24	0.028020449
202	0xb9ad76c5	-0.00033085622
203	0x3c1170bd	0.008876977
204	0x3cd374ef	0.025812594
205	0xbc87ca25	-0.016575882
206	0xbdcb0d5e	-0.09914659
207	0x3cdc9419	0.026926087
208	0x3d225baf	0.039638218
209	0xba2cea42	-0.00065961864
210	0x3cd404d7	0.025881214
211	0x3bd8ae44	0.006612571
212	0xbd094c21	-0.033519868
213	0x3d8bb1f8	0.06821054
214	0x3d4ed6f7	0.050497975
215	0xbbea6f31	-0.0071543683
216	0xbd72407b	-0.059143525
217	0xbb3b201c	-0.0028553074
218	0x3c1be071	0.00951396
219	0x3ce418e9	0.02784391
220	0xbc8c8536	-0.017153364
221	0xbcf587f5	-0.029972056
222	0x3d3380bd	0.043823946
223	0xbc0f7f1e	-0.008758334
224	0xbd20ea06	-0.039285682
225	0xbce73d3f	-0.028227447
226	0x3b9b2dd5	0.004735688
227	0x3d0468ec	0.032326624
228	0x3ce15776	0.027507525
229	0x3cd98023	0.026550358
230	0xbc9b872b	-0.018985352
231	0x3d0a9b2f	0.0338394
232	0xbb99c1f3	-0.00469231
233	0x3d915e45	0.070980586
234	0x3c2e4aa9	0.010637918
235	0x3cf1204c	0.029434346
236	0x3c49c8d4	0.012315948
237	0xbd2712e8	-0.040789515
238	0xbc1529f0	-0.009104237
239	0xbce63cea	-0.028105218
240	0x3d6b8bbd	0.05750631
241	0x3d29195a	0.041283943
242	0xbd39b9ea	-0.045343317
243	0x3d2ab79c	0.04167901
244	0x3cac2c5a	0.021017242
245	0xbd7eacad	-0.062176395
246	0x3c24206e	0.010017497
247	0xbb92845c	-0.004471345
248	0xbb8db80f	-0.00432492
249	0xbd6beaeb	-0.057597082
250	0xbd857288	-0.06515986
251	0x3d0cc074	0.034363225
252	0xbdcdd3f9	-0.10050196
253	0x3c08a639	0.008340412
254	0x3d9822b3	0.07428493
255	0xbd98adb6	-0.07455008

bn3.weight f4 [32]
0	0x3fa08b22	1.254246
1	0x3fa6c68f	1.3029345
2	0x3fa43b85	1.2830664
3	0x3f9750e0	1.1821556
4	0x3f973fc8	1.181634
5	0x3f8fabb2	1.1224272
6	0x3fa143ba	1.2598794
7	0x3f7d630d	0.98979264
8	0x3fa7ff68	1.3124819
9	0x3f9accc4	1.209374
10	0x3f9354b3	1.1510223
11	0x3f939015	1.1528345
12	0x3fa8154c	1.3131499
13	0x3fa0ece4	1.2572293
14	0x3fa4d70b	1.2878126
15	0x3fa41ae5	1.2820708
16	0x3f98da4e	1.1941621
17	0x3f915808	1.135499
18	0x3fa1674b	1.2609648
19	0x3fae3af2	1.3611739
20	0x3f8844d0	1.0646
21	0x3fb16d0f	1.3861407
22	0x3f871d2c	1.0555778
23	0x3f807d3c	1.0038218
24	0x3fa8fe62	1.3202631
25	0x3f97b61e	1.1852453
26	0x3f9c03ef	1.21887
27	0x3fae51e8	1.3618746
28	0x3f9fea39	1.2493354
29	0x3f93e98d	1.1555649
30	0x3fa47546	1.2848289
31	0x3fae2f81	1.3608247

bn3.bias f4 [32]
0	0xbd0c3887	-0.034233596
1	0x3bd3c2fd	0.0064624534
2	0xbc844b94	-0.01614932
3	0xbddafd2c	-0.1069282
4	0x3de9c8ce	0.114152536
5	0x3ceee2f9	0.029160963
6	0x3d8ea3bd	0.06964824
7	0xbd1778cd	-0.03698044
8	0x3da67126	0.0812705
9	0xbc91c40c	-0.017793678
10	0xbdc88cc7	-0.09792476
11	0xbc74a427	-0.014931715
12	0xbd38fd1f	-0.04516327
13	0xbd1d7029	-0.038437042
14	0xbb9a0eb4	-0.00470146
15	0xbd8d1377	-0.06888478
16	0xbd1d846d	-0.03845637
17	0x3d254dc5	0.04035737
18	0x3d56d524	0.05244936
19	0x3d5f5df8	0.054532975
20	0xbdf16f32	-0.11788787
21	0x3c5ba383	0.013405683
22	0xbca89b13	-0.020581758
23	0xbd58783f	-0.05284905
24	0xbd148df8	-0.036268204
25	0x3d273345	0.04082038
26	0x3d56f795	0.052482206
27	0xbd8d7863	-0.069077276
28	0xbd231328	-0.03981319
29	0x3ddfc1ab	0.10925611
30	0x3d850004	0.064941436
31	0x3ce17343	0.027520781

bn3.running_mean f4 [32]
0	0x3e8854c1	0.26627162
1	0x3f4d3888	0.80164385
2	0x3f699c34	0.9125397
3	0x3e3dc13b	0.18530743
4	0x3f5e9730	0.86949444
5	0x3ebf3a41	0.37349132
6	0x3f38e23e	0.7222022
7	0x3e19fec1	0.15038587
8	0x3f5150e0	0.8176403
9	0x3ec9d9eb	0.3942407
10	0x3ecb7c9d	0.3974351
11	0x3f4cf336	0.8005861
12	0x3f38bd0f	0.7216348
13	0x3eb2f824	0.3495494
14	0x3f1c72ff	0.6111297
15	0x3f01895c	0.5060022
16	0x3e87e980	0.26545334
17	0x3f000e96	0.50022256
18	0x3f1ca6cf	0.6119203
19	0x3edd3cf5	0.4321057
20	0x3e26b5bd	0.16280265
21	0x3f11bc65	0.5692809
22	0x3e195253	0.1497281
23	0x3dac3259	0.084080406
24	0x3eb83dd4	0.3598467
25	0x3e510230	0.2041099
26	0x3f1a1f2e	0.60203826
27	0x3ee56ca5	0.44809452
28	0x3e8f45b7	0.27982876
29	0x3f166f34	0.5876343
30	0x3f37af30	0.7175169
31	0x3f27c7a8	0.65539026

bn3.running_var f4 [32]
0	0x3e5d4a31	0.21610333
1	0x3ef6cbea	0.4820245
2	0x3f068788	0.52550554
3	0x3e09dba4	0.13462692
4	0x3ec47e0b	0.38377413
5	0x3e72dfe9	0.23718227
6	0x3ee35027	0.4439709
7	0x3d9c6fe1	0.07638527
8	0x3f04eed5	0.5192693
9	0x3e9afdb4	0.30271685
10	0x3e660a94	0.22464973
11	0x3ec9fa7c	0.39448917
12	0x3ef3af08	0.47594476
13	0x3e7336fe	0.23751447
14	0x3eb98884	0.36236966
15	0x3ec1a5c2	0.37821776
16	0x3e25cb2e	0.16190788
17	0x3e952828	0.291322
18	0x3ee4327b	0.44569764
19	0x3ece7b2c	0.40328348
20	0x3df0c01e	0.117553934
21	0x3e9b534d	0.3033699
22	0x3dbd0afc	0.09230611
23	0x3d698e18	0.057020277
24	0x3e66a487	0.225237
25	0x3e12d394	0.14338523
26	0x3ebe7e48	0.3720572
27	0x3edf75c6	0.43644542
28	0x3e3b15a4	0.18269974
29	0x3ea7f37f	0.3280296
30	0x3ec91dac	0.3928045
31	0x3ebb442d	0.36575451

fc.weight f4 [10, 32]
0	0x3c881867	0.016613198
1	0x3ef79882	0.48358542
2	0xbebff31e	-0.3749017
3	0x3f1926f2	0.5982505
4	0x3e7565ae	0.23964569
5	0xbe84924d	-0.2589287
6	0xbef95eec	-0.48705232
7	0x3dd07b07	0.101797156
8	0xbf094d30	-0.53633404
9	0x3d126516	0.035740934
10	0x3eb04a73	0.344318
11	0xbef996ce	-0.48747867
12	0xbec64389	-0.387234
13	0xbe9482c3	-0.29006013
14	0x3ef3561e	0.4752664
15	0x3e34a9aa	0.17642847
16	0xbe05d644	-0.13070017
17	0xbe6049a7	-0.21903096
18	0xbe8d8c0a	-0.27645904
19	0xbe8133b1	-0.2523475
20	0x3ea4db05	0.3219835
21	0xbf0c51c5	-0.5481227
22	0xbd14958f	-0.036275443
23	0xbd887add	-0.06664059
24	0x3e7b55e8	0.2454449
25	0xbe05e7cc	-0.13076705
26	0xbed50ed0	-0.41612864
27	0xbed09aa4	-0.4074298
28	0xbe9ce145	-0.30640617
29	0xbe8f2f1a	-0.27965623
30	0x3d9d0e28	0.07668716
31	0x3f25a4a9	0.64704376
32	0xbe64c873	-0.2234209
33	0xbe5ee2aa	-0.21766153
34	0xbe8c657e	-0.27421182
35	0xbe4a0e91	-0.19732119
36	0xbe998c7a	-0.29989988
37	0xbe451af2	-0.1924856
38	0xbe932651	-0.2874017
39	0x3f1896fc	0.59605384
40	0xbe266324	-0.16248757
41	0xbe077b12	-0.13230541
42	0xbd035fdb	-0.032073837
43	0xbecd9510	-0.40152788
44	0xbe5439a0	-0.20725107
45	0x3dd1bc54	0.10240999
46	0xbef09ecd	-0.46996155
47	0x3e1250f2	0.1428869
48	0x3ecb91b5	0.39759603
49	0xbc6fedfc	-0.014644142
50	0xbeb63d77	-0.3559377
51	0xbe960e0f	-0.293076
52	0xbe047d3f	-0.12938403
53	0x3eaf09c3	0.34187135
54	0x3f2d8f08	0.67796373
55	0x3f3a6dbb	0.72823685
56	0xbed10748	-0.40825868
57	0x3d34b491	0.044117514
58	0x3ec973ee	0.3934626
59	0xbdd474f6	-0.10373871
60	0xbe5e533d	-0.2171144
61	0xbe1c851e	-0.15285155
62	0xbee37363	-0.4442397
63	0xbeb2d5f4	-0.34928858
64	0xbe2c3203	-0.16815953
65	0x3f10bde6	0.5653976
66	0x3f121b04	0.5707247
67	0xbe0b5d46	-0.136098
68	0xbe51844f	-0.20460628
69	0xbe9c25dd	-0.30497637
70	0xbebe1114	-0.37122405
71	0xbe83f513	-0.25772914
72	0x3f126f01	0.5720063
73	0x3e25fe4d	0.1621029
74	0xbe12dd4e	-0.14342234
75	0x3c17a2ed	0.009255153
76	0xbe701cb4	-0.2344845
77	0xbefcb5eb	-0.49357542
78	0x3f2c13c2	0.6721765
79	0x3f150115	0.58204776
80	0xbeca12e1	-0.39467528
81	0xbed58577	-0.41703388
82	0xbe8d1e07	-0.27561972
83	0xbdf9228e	-0.12164794
84	0xbe46db5a	-0.19419613
85	0x3f100e44	0.5627177
86	0xbe3aa8f5	-0.18228514
87	0xbe500068	-0.20312655
88	0xbe7961f6	-0.24353775
89	0x3f242d12	0.6413127
90	0x3eb0474e	0.344294
91	0xbd48ceda	-0.049025394
92	0xbec1b9e5	-0.3783714
93	0x3db6fbc6	0.08934741
94	0x3e9cb190	0.3060422
95	0xbe7e599a	-0.24838868
96	0xbeb4fb6b	-0.35348067
97	0x3e97e844	0.29669392
98	0x3eec441a	0.46145707
99	0xbdb02d0e	-0.086023435
100	0xbeb1cd77	-0.3472707
101	0x3f0bc97d	0.5460432
102	0xbeaef05f	-0.34167764
103	0xbddf2c50	-0.10897124
104	0x3eefbc10	0.46823168
105	0x3f01d058	0.5070853
106	0xbea8ad95	-0.32944933
107	0x3ee282e6	0.44240493
108	0x3ee9168e	0.4552502
109	0x3f1cccef	0.61250204
110	0x3c8be3a2	0.017076317
111	0xbebd9124	-0.37024796
112	0x3e11d750	0.14242291
113	0xbea8f76c	-0.33001268
114	0xbea396a3	-0.31950864
115	0xbe27ac95	-0.16374429
116	0x3d3d6294	0.04623659
117	0xbec79174	-0.3897816
118	0xbe7044bf	-0.23463725
119	0xbdde5200	-0.10855484
120	0xbe961e3e	-0.29319948
121	0xbea0cedc	-0.3140782
122	0xbc21583c	-0.009847697
123	0xbed3d6ac	-0.4137472
124	0x3f258654	0.64658093
125	0x3ecfb2a3	0.40565977
126	0xbefe4051	-0.49658445
127	0x3e579504	0.21052939
128	0x3d25a146	0.040437005
129	0xbec9dee3	-0.39427862
130	0xbebed534	-0.37272036
131	0xbda0a45f	-0.07843851
132	0x3eb1dd1f	0.34739015
133	0xbe785921	-0.2425275
134	0x3eb45f70	0.35229063
135	0xbdd858bd	-0.105638005
136	0x3e723b5b	0.23655455
137	0xbe7ebe8d	-0.24877377
138	0xbe53ce0f	-0.20684074
139	0x3df4e1da	0.1195714
140	0xbec761da	-0.38941842
141	0xbdc46dc6	-0.0959125
142	0xbe88efd1	-0.26745465
143	0x3da68ac0	0.08131933
144	0x3f3327a0	0.6998234
145	0x3e802525	0.2502834
146	0xbe7aa902	-0.24478534
147	0xbeab2990	-0.33430147
148	0x3f2eecf8	0.68330336
149	0x3ea0dba3	0.3141757
150	0xbe844e4b	-0.25840983
151	0xbe31dfb0	-0.17370486
152	0x3ec00735	0.375055
153	0xbe8b6d7b	-0.27231964
154	0xbe5144d8	-0.20436418
155	0x3f43263c	0.76230216
156	0xbe071a59	-0.13193645
157	0x3e8ec758	0.27886462
158	0x3ec55242	0.3853932
159	0xbf170f85	-0.59008056
160	0x3f253288	0.6453023
161	0xbef79325	-0.4835445
162	0x3d0128e6	0.031533144
163	0xbe72b268	-0.23700869
164	0x3e444649	0.19167437
165	0x3eb3e33d	0.35134307
166	0xbe935082	-0.2877236
167	0xbdd819e8	-0.10551816
168	0xbef20017	-0.47265694
169	0x3f372f6b	0.7155673
170	0x3deb5be8	0.11492139
171	0x3e29b3cd	0.16572495
172	0x3f31e32c	0.6948726
173	0xbec1e791	-0.37871984
174	0xbee79a34	-0.45234835
175	0xbe81ed58	-0.2537639
176	0xbe7ba03e	-0.24572846
177	0xbe87cbc2	-0.26522642
178	0x3c93273a	0.01796304
179	0x3f0d8de3	0.55294627
180	0xbe5699cc	-0.20957106
181	0xbedd6bf0	-0.43246412
182	0x3e926838	0.28595138
183	0xbe1ea91c	-0.15494198
184	0xbe0a6932	-0.13516691
185	0x3e1910c9	0.1494781
186	0xbe7d9006	-0.24761972
187	0x3ec37e34	0.38182223
188	0x3dc16a9d	0.09444163
189	0x3c7fae22	0.015605481
190	0xbea0f996	-0.3144042
191	0xbe61aa2a	-0.22037569
192	0xbe00f9cc	-0.1259529
193	0x3dba1023	0.09085109
194	0xbea51887	-0.32245275
195	0x3f3b52fa	0.7317349
196	0x3e279ba8	0.16367972
197	0x3ecc8c5d	0.3995084
198	0x3e4bbcbb	0.19896214
199	0xbe5a900c	-0.21344012
200	0x3e9c4722	0.3052302
201	0xbe0ed7da	-0.13949528
202	0x3eaa7889	0.33295086
203	0xbe624f80	-0.2210064
204	0x3ed4f04d	0.41589585
205	0xbe94d19a	-0.29066163
206	0xbebdf817	-0.3710334
207	0x3f3129a6	0.69204175
208	0xbea5a14a	-0.32349616
209	0xbe44a382	-0.19202998
210	0x3ec53bac	0.3852209
211	0x3ed65d18	0.418679
212	0x3dd589ca	0.10426672
213	0x3d8733ff	0.06601714
214	0xbd99442f	-0.07483708
215	0x3d80a8de	0.06282209
216	0x3eff5ebc	0.49876964
217	0xbe9a83e5	-0.30178753
218	0x3f0cda78	0.55020857
219	0x3f0320a0	0.51221657
220	0xbea0a877	-0.31378528
221	0xbe72426d	-0.23658152
222	0xbefa650a	-0.48905212
223	0x3eb85c10	0.36007738
224	0xbea999b0	-0.33125067
225	0xbe97b117	-0.29627296
226	0x3ea6586c	0.32489336
227	0xbd54536a	-0.051837362
228	0xbf196707	-0.5992283
229	0xbe59a590	-0.21254563
230	0x3ee51a2b	0.44746527
231	0x3eb888f9	0.36042002
232	0xbe69d37a	-0.22834578
233	0xbec5b7f4	-0.38616908
234	0x3f1a06af	0.6016645
235	0x3eb2fa5e	0.3495664
236	0x3e833d9b	0.2563294
237	0x3f13f6d6	0.57798517
238	0x3e86772c	0.26262796
239	0xbe804a54	-0.25056708
240	0xbe8040fa	-0.25049573
241	0x3eece784	0.46270382
242	0xbeb74e65	-0.35801998
243	0xbe7234dd	-0.23652978
244	0x399004ef	0.00027469496
245	0x3edb4744	0.4282781
246	0xbe999c7e	-0.30002207
247	0xbe361631	-0.17781903
248	0xbe9599d1	-0.29218915
249	0x3c95a1c3	0.01826561
250	0xbeb74509	-0.35794857
251	0xbe092d43	-0.13396172
252	0x3ca57762	0.020198528
253	0xbf13ca69	-0.5773073
254	0x3eb99814	0.3624884
255	0xbec8b95d	-0.3920392

fc.bias f4 [10]
0	0xbdcb8b75	-0.09938709
1	0xbcba2572	-0.022722933
2	0x3d5a2ab0	0.053263366
3	0xbd96f22a	-0.07370408
4	0xbc94447b	-0.01809906
5	0x3d05fd33	0.032712173
6	0xbd933de9	-0.07189543
7	0xba3b43fc	-0.00071436143
8	0x3e432ee8	0.19060862
9	0x3de69615	0.112590946
